trained_reacher_final_e250.pth (torch_old, 697929 bytes, 38 tensors)

input_layer.weight f4 [256, 33]
0	0x3d00756a	0.031361975
1	0x3e125b1f	0.14292572
2	0x3d0439fe	0.03228187
3	0xbd4d78b3	-0.050163936
4	0xbc911614	-0.017710723
5	0xbd614c0a	-0.055004157
6	0x3aaae4b4	0.001303813
7	0x3d28348c	0.041065738
8	0xbd72e8a1	-0.059303883
9	0x3b223078	0.0024748128
10	0xbd30a9ab	-0.043130558
11	0x3d13754e	0.036000542
12	0x3b174760	0.0023083314
13	0x3cb08d2f	0.021551697
14	0xbd5aae58	-0.053388923
15	0xba268a6f	-0.00063530257
16	0xbd05d843	-0.032676946
17	0x3d81b50c	0.0633336
18	0x3df4e4cb	0.11957701
19	0x3be82326	0.007084268
20	0xbe12d7d9	-0.14340152
21	0x3aeb33b2	0.0017944484
22	0x3d770c39	0.06031439
23	0xbcd3be1b	-0.025847485
24	0x3cb33091	0.021873744
25	0xbdc3f59f	-0.09568333
26	0x3d0bb5f1	0.03410906
27	0x3c30d373	0.010792601
28	0x3d2a0e5d	0.041517604
29	0xbd33bf5c	-0.043883666
30	0x3c4fabcb	0.012675236
31	0x3ccf3a20	0.02529627
32	0xbe9de0e6	-0.30835646
33	0xbd16a086	-0.03677418
34	0xbde62e86	-0.112393424
35	0xbc9382d2	-0.018006716
36	0x3d760058	0.06005892
37	0xbd6df6df	-0.058096763
38	0xbd9dd003	-0.07705691
39	0x3d592265	0.053011317
40	0xbc10948b	-0.008824478
41	0x3ca59c0d	0.020216012
42	0x3d5e3b2e	0.054255657
43	0xbd09adde	-0.03361308
44	0xbc882386	-0.016618501
45	0x3ce8b79e	0.028407868
46	0x3db53a5f	0.08849024
47	0x3deedb96	0.116629764
48	0xbd0f54df	-0.03499305
49	0x3de8d582	0.113688484
50	0xbb6c90d3	-0.0036097064
51	0xbd598934	-0.053109363
52	0x3a6ca716	0.00090275833
53	0xbcf43d95	-0.02981452
54	0xbbfb4b0e	-0.0076688593
55	0xbcc83385	-0.024438629
56	0x3cc9c16b	0.024628362
57	0xbbb42581	-0.005497635
58	0xbd221633	-0.039571952
59	0xbda7f1b1	-0.08200396
60	0x3ccca271	0.024979802
61	0xbd183079	-0.037155602
62	0x3cbb9828	0.022899702
63	0xbd6d6144	-0.057954088
64	0xbd3c2ef2	-0.045943208
65	0x3e1e9de6	0.15489921
66	0xbd8c7ac2	-0.06859352
67	0xbd2105c4	-0.03931214
68	0x3dc47834	0.095932394
69	0x3d4f3212	0.05058486
70	0x3d3e603e	0.046478502
71	0xbd606fa5	-0.054793973
72	0xbbda43b1	-0.0066609015
73	0x3d98c7d9	0.07459993
74	0xbdd95d4e	-0.106134996
75	0x3d939139	0.072054334
76	0x3c513764	0.012769554
77	0xbd7c7e5e	-0.06164395
78	0x3c1f6db2	0.009730743
79	0x3a4f75eb	0.00079139945
80	0x3d2f4c69	0.04279748
81	0xbc41f5be	-0.011838375
82	0x3b72a8ea	0.003702695
83	0x3b50ed83	0.003187985
84	0xbd17b9ab	-0.0370423
85	0xbcbf4b62	-0.023351375
86	0xbcbecf38	-0.023292169
87	0xbbe14a13	-0.0068752854
88	0xbd4a4d1f	-0.049389955
89	0xbcad3ca6	-0.021147083
90	0x3cbf616f	0.02336189
91	0x3c9f7ed2	0.019469652
92	0x3dad9deb	0.08477386
93	0x3d3e83c4	0.04651238
94	0xbdfd9d64	-0.123835355
95	0x3c311ca0	0.010810047
96	0x3abf676f	0.0014602969
97	0x3bfb9300	0.007677436
98	0xbe033c81	-0.12816049
99	0xbd93596c	-0.0719479
100	0xbdae5c25	-0.08513669
101	0x3d7f80c1	0.06237865
102	0x3cd1bb8e	0.025602128
103	0xbd558e97	-0.052137937
104	0xbdaf50f7	-0.08560365
105	0x3dad7ee7	0.0847147
106	0xbd38a8bc	-0.045082793
107	0xbda37f93	-0.07983317
108	0x3d0fa2ce	0.035067372
109	0xbd6a4a53	-0.057199787
110	0x3cf480c7	0.029846562
111	0xb95730c7	-0.00020522169
112	0x3bb69e65	0.0055730813
113	0x3db2944e	0.08719693
114	0xbcd86fbf	-0.026420472
115	0xbcf8696d	-0.030323708
116	0xbd3083c7	-0.043094423
117	0xbd4243b8	-0.047427863
118	0xbd4527d8	-0.0481337
119	0xbcd986cf	-0.02655354
120	0x3d330299	0.04370365
121	0x3c7f7463	0.015591714
122	0xbdba599e	-0.09099124
123	0xbcd49ad5	-0.025952736
124	0x3cfd9509	0.030954855
125	0xbcb72589	-0.022356765
126	0xbcdb540c	-0.026773475
127	0xbc8f28d8	-0.01747553
128	0x3cc7beac	0.024382912
129	0x3d8afa88	0.06786066
130	0xbd179238	-0.03700468
131	0x3ed49985	0.41523376
132	0x3e114105	0.14184959
133	0xbd600321	-0.054690484
134	0xbe0f4131	-0.13989712
135	0xbc29638c	-0.010338675
136	0x3df82d2d	0.121179916
137	0x38eb7450	0.00011227338
138	0xbddbf3d5	-0.10739867
139	0xbd216819	-0.039405916
140	0xbd9cd532	-0.07657851
141	0x3c913c14	0.017728843
142	0x3c9bf12e	0.019035902
143	0x3d8a662d	0.0675777
144	0xbd88e6c4	-0.0668464
145	0x3c612c75	0.01374351
146	0x3d574ca0	0.05256331
147	0xbccd2afb	-0.025044909
148	0xbd3c0e56	-0.04591211
149	0x3d325e61	0.043547038
150	0xbd75f1ea	-0.06004516
151	0xbc2c3326	-0.010510242
152	0x3b5cce81	0.0033692422
153	0x3ce6cf18	0.028174922
154	0xbd62c6f5	-0.05536552
155	0x3d54e5ed	0.051977087
156	0x3be308ea	0.006928553
157	0x3d147d51	0.036252324
158	0xbc8fe17a	-0.01756357
159	0xbe1e3d5f	-0.15453099
160	0xbd6a2a98	-0.057169527
161	0x3cedb78c	0.029018186
162	0x3e03f9af	0.12888215
163	0xbc381b08	-0.0112369135
164	0x3e479592	0.1949065
165	0xbd770a1f	-0.060312387
166	0x3d0730a0	0.033005357
167	0xbcc364fc	-0.023851864
168	0xbdbbb1b0	-0.091647506
169	0x3d91855d	0.07105515
170	0xbc793d94	-0.015212435
171	0xbddd70b5	-0.10812513
172	0x3cc3547f	0.023844002
173	0xbdc4acb0	-0.0960325
174	0xbd3b0518	-0.045659155
175	0xbd2cf79d	-0.04222833
176	0x3d6d3d06	0.057919525
177	0xbdb5fbeb	-0.0888594
178	0x3dcac971	0.09901703
179	0x3d094cd7	0.033520546
180	0x3d94cec9	0.07266004
181	0x3c17fdf0	0.009276852
182	0xbbce19f9	-0.0062897173
183	0x3b0e18bf	0.002168223
184	0x3cdab7ec	0.026699029
185	0xbd5b8747	-0.053595807
186	0x3d34e0b8	0.04415962
187	0xbb62b538	-0.0034592878
188	0x3d7ebca7	0.06219163
189	0x3d8e38aa	0.069444016
190	0x3cc36b79	0.023854958
191	0xbd642580	-0.055699825
192	0x3dc32e05	0.09530262
193	0x3c95b9bd	0.018277043
194	0x3d309b02	0.043116577
195	0xbd38a2d5	-0.045077164
196	0xbd0ef5d0	-0.034902394
197	0xbe3ebab6	-0.18625912
198	0x3e0101f9	0.12598409
199	0x3aebe80f	0.0017998236
200	0xbd395ba2	-0.045253403
201	0xbacf74f7	-0.0015827705
202	0xbd02b412	-0.03191001
203	0x3d8b239b	0.067939006
204	0x3d95fbe9	0.07323439
205	0x3d1ae8b9	0.037819598
206	0xbde8f101	-0.11374093
207	0x3d3c7eb7	0.046019282
208	0x3cfb28ca	0.030659098
209	0xbbeeeccf	-0.0072914134
210	0x3c3273b7	0.010891846
211	0xbdb58721	-0.088636644
212	0x3c4eb567	0.012616492
213	0xbc90e6d7	-0.017688198
214	0x3c2535f7	0.010083667
215	0x3de76d8a	0.1130019
216	0xbc852080	-0.016250849
217	0xbd2b45cf	-0.04181462
218	0xbbb781ce	-0.0056001907
219	0xbc003be6	-0.007826781
220	0x3d0875c5	0.03331544
221	0xbce606db	-0.02807944
222	0xbd4212d9	-0.047381256
223	0x3ca50913	0.020145928
224	0x3dd93e42	0.10607578
225	0x3e0019a3	0.1250978
226	0x3d776625	0.060400147
227	0xbcfd5abc	-0.030927055
228	0xbe0d4e2f	-0.13799356
229	0x3d12105e	0.03566014
230	0x3d17fcce	0.037106328
231	0x3de240bb	0.110475026
232	0x3dc06d35	0.093958296
233	0xbdd452f7	-0.10367387
234	0x3d2c0b0e	0.04200273
235	0x3c956f4e	0.01824155
236	0x3ba5d9fb	0.0050613857
237	0x3cf44f60	0.029823005
238	0xbb64d206	-0.0034915223
239	0xbc580a58	-0.01318606
240	0x3ccc8d0e	0.024969604
241	0x3c1c74e3	0.009549352
242	0x3c9c6372	0.019090388
243	0x3b90ce4f	0.004419125
244	0xbdca0a03	-0.09865191
245	0xbc24985e	-0.010046093
246	0x3e01810a	0.12646881
247	0x3b59d680	0.0033239424
248	0x3dcd3943	0.100206874
249	0x3d1e3978	0.038629025
250	0xbbb8d300	-0.0056403875
251	0xbb6f9094	-0.003655468
252	0x39240d28	0.0001564516
253	0x3bb17937	0.0054160613
254	0xbc33d9bd	-0.010977206
255	0xbc062696	-0.008187911

input_layer.bias f4 [256]
0	0xbe5ce368	-0.21571124
1	0xbe2fe307	-0.17176448
2	0x3e21619f	0.15759896
3	0x3d4ce117	0.05001935
4	0x3d97eeb3	0.07418575
5	0x3dc5e2f6	0.0966243
6	0xbe101e95	-0.14074166
7	0x3d49f889	0.049309287
8	0xbe8e5ef6	-0.27806824
9	0xbd86d66f	-0.06583869
10	0xbe8c7431	-0.27432397
11	0x3e4fe3f9	0.20301808
12	0xbd70df95	-0.058806974
13	0xbde0904a	-0.10965021
14	0x3c35170d	0.011052859
15	0x3d0a2c70	0.033733785
16	0x3d7e7ded	0.06213181
17	0xbd932065	-0.07183913
18	0xbe2e887d	-0.17044254
19	0x3e14d55b	0.14534514
20	0x3c558332	0.013031768
21	0x3aa0be42	0.0012263732
22	0xbe0559a6	-0.1302248
23	0xbc90663f	-0.01762688
24	0xbe12845c	-0.14308304
25	0x3d34dbfb	0.044155102
26	0xbcb2411a	-0.021759558
27	0xbddb3031	-0.10702551
28	0xbd2343e3	-0.039859664
29	0xbdb75ff6	-0.0895385
30	0x3d11245e	0.035435073
31	0x3d13fcc4	0.036129728
32	0xbdc619ed	-0.09672914
33	0x3cd86c09	0.026418703
34	0x3c92768f	0.017878799
35	0xbc1c8843	-0.009553972
36	0x3d645f7c	0.055755123
37	0xbd2576ee	-0.040396623
38	0xbde12a85	-0.10994438
39	0xbda4c6c9	-0.08045728
40	0xbcf25838	-0.029583082
41	0xbc4fb661	-0.01267776
42	0x3dbe9da3	0.093074106
43	0xbd9db4c6	-0.077004954
44	0xbc7adf3b	-0.015312011
45	0xbe279b38	-0.16367805
46	0x3d187c01	0.037227634
47	0xbe273f0a	-0.16332641
48	0x3e73dd37	0.23814856
49	0xbda020dd	-0.07818768
50	0xbcb91544	-0.022593148
51	0x3e1c1e27	0.15245877
52	0x3dbaf10c	0.09128007
53	0xbb9b1e9d	-0.004733874
54	0xbda437a2	-0.080184236
55	0xbe022b23	-0.12711768
56	0x3dd8d375	0.10587207
57	0xbb745f1f	-0.0037288142
58	0xbda7e482	-0.08197881
59	0xbd172571	-0.03690094
60	0xbe7c43c5	-0.24635227
61	0x3e219f91	0.15783526
62	0xbe61b072	-0.22039965
63	0xbd0d7cea	-0.034542955
64	0x3e689bb4	0.22715646
65	0xbdd9c99c	-0.10634157
66	0xbe0e513f	-0.1389818
67	0xbc7ca721	-0.015420706
68	0x3b6b211b	0.0035877887
69	0x3d916cca	0.07100828
70	0xbd7284fd	-0.05920886
71	0xbc01030f	-0.007874264
72	0x3e16a736	0.14712223
73	0xbe5f7c14	-0.21824676
74	0x3d43ac6f	0.047771867
75	0xbe046c27	-0.12931882
76	0xbe84e022	-0.2595225
77	0xbdc2a604	-0.09504321
78	0xbdd22135	-0.1026024
79	0x3d824769	0.06361277
80	0xbdf03335	-0.11728517
81	0xbdf19cd6	-0.11797492
82	0x3e069ee7	0.13146554
83	0x3e1aa5ee	0.1510236
84	0xbdcc2cc4	-0.09969476
85	0xbdc84882	-0.09779455
86	0x3e5ef2d7	0.21772324
87	0x3d471e14	0.04861267
88	0xbd973d74	-0.07384768
89	0x3d91d6a5	0.07121018
90	0xbd8f4ed4	-0.06997457
91	0xbdcc32ff	-0.09970664
92	0xbd61cd18	-0.055127233
93	0x3c661d61	0.01404509
94	0xbe2d6a95	-0.16935189
95	0xbd0c8ff6	-0.03431698
96	0xbe74497b	-0.23856156
97	0x3e1b7558	0.15181482
98	0x3cd81d58	0.02638118
99	0xbddd82b2	-0.10815944
100	0x3e49d5af	0.1971042
101	0x3d8701ac	0.06592116
102	0x3d5b8856	0.053596817
103	0x3c8a6a7e	0.016896483
104	0x3d02ce67	0.031935122
105	0xbdbe8956	-0.093035385
106	0xbe834137	-0.25635692
107	0xbcf7d2a7	-0.030251814
108	0xbe2a3e06	-0.16625223
109	0xbc86d6e9	-0.016459899
110	0x3e3c0de3	0.18364672
111	0xbe0ec51f	-0.13942383
112	0x3d89c61c	0.067272395
113	0xbcb03312	-0.021508727
114	0x3e1252f3	0.14289455
115	0x3c9848a7	0.01858933
116	0x3e3611ee	0.17780277
117	0xbdc57f99	-0.09643478
118	0x3c33dee5	0.010978435
119	0x3d337e04	0.04382135
120	0x3dbf0da9	0.09328777
121	0x3d433353	0.04765637
122	0x3c7a7adc	0.015288081
123	0xbe7aa8e8	-0.24478495
124	0xbccfb9f7	-0.02535723
125	0xbe7449c2	-0.23856261
126	0xbdb44595	-0.08802334
127	0xbda339bf	-0.079699986
128	0x3d2ea60c	0.042638823
129	0x3dc39860	0.095505476
130	0x3ae58418	0.001751068
131	0x3dfad48d	0.12247572
132	0x3c4fd5d1	0.012685255
133	0x3dd7da06	0.105396315
134	0x3dcf6ce2	0.101281896
135	0x3e9408c2	0.28912932
136	0xbdce84a9	-0.10083897
137	0x3c93016e	0.017945018
138	0x3bb63636	0.0055606617
139	0x3cf52b14	0.029927768
140	0xbcc666e8	-0.024218991
141	0xbe099393	-0.13435201
142	0x3e1d846f	0.1538255
143	0x3d2ec237	0.042665686
144	0xbe1481dc	-0.14502662
145	0x3e36acb4	0.17839319
146	0x3cfe057f	0.03100848
147	0x3c881e26	0.016615938
148	0xbb291371	-0.0025798941
149	0x3ddba092	0.10723986
150	0x3d490bbd	0.04908346
151	0xbe3881dc	-0.18018287
152	0xbcb8ec9d	-0.022573764
153	0x3db8839b	0.09009477
154	0xbda7c911	-0.08192647
155	0xbe17161a	-0.14754525
156	0x3e332215	0.1749347
157	0xbdb08f3b	-0.08621069
158	0x3e8423c3	0.25808534
159	0x3d0e3ce0	0.034726024
160	0xbd570edf	-0.052504417
161	0xbda361b2	-0.07977618
162	0xbde4b29a	-0.11166878
163	0xbe267e07	-0.16259013
164	0x3dd2e64e	0.102978334
165	0xbdd0347e	-0.10166262
166	0xbddd5697	-0.10807531
167	0xbd904989	-0.07045276
168	0xbea2db42	-0.31807905
169	0x3db3b989	0.087756224
170	0x3da10434	0.0786213
171	0xbe1c1946	-0.15244016
172	0x3d46bfb7	0.048522677
173	0xbd9ad4f7	-0.07560151
174	0xbe1958bb	-0.14975254
175	0xbcdf8984	-0.027287252
176	0xbddd28b4	-0.10798779
177	0xbc79d6ac	-0.015248936
178	0xbde60359	-0.11231107
179	0x3c964961	0.018345537
180	0x3dbcef89	0.09225375
181	0x3e343452	0.17598084
182	0xbd17d482	-0.037067898
183	0x3cfdd8ae	0.03098711
184	0xbe28af1b	-0.16473047
185	0x3e60d509	0.21956266
186	0x3d32c794	0.043647364
187	0xbdd77e46	-0.105221316
188	0xbda5263c	-0.08063933
189	0x3c07e180	0.0082935095
190	0xbe48af6b	-0.19598167
191	0xbd6f6fef	-0.058456358
192	0xbe4132dd	-0.18867059
193	0xbe739c6d	-0.2379014
194	0x3d868630	0.06568563
195	0x3daff310	0.08591282
196	0xbe090312	-0.13380077
197	0x3d50e935	0.051003654
198	0x3d108932	0.03528709
199	0x3e2d30e0	0.16913176
200	0x3b955bd6	0.004558067
201	0x3e4ca57e	0.19985005
202	0x3dba40b5	0.09094373
203	0x3d396370	0.045260847
204	0x3dcbcdbf	0.09951352
205	0x3e715984	0.23569304
206	0xbe5b663d	-0.2142572
207	0x3ce921ba	0.028458465
208	0xbb781ab9	-0.0037857725
209	0x3d2eb0a5	0.04264893
210	0xbcaf338e	-0.021386888
211	0x3e1c1889	0.15243734
212	0xbdc5fbba	-0.09667154
213	0xbd88393d	-0.06651542
214	0xbd0655b5	-0.03279658
215	0x3e11f600	0.14253998
216	0xbdae1e14	-0.08501831
217	0x3c5779fe	0.013151644
218	0xbddb0afc	-0.106954545
219	0x3d244d94	0.040113047
220	0xbe6509b6	-0.22366986
221	0xbe490d0f	-0.19633888
222	0x3e1bb917	0.15207325
223	0x3cea4d7d	0.028601402
224	0xbcc7a488	-0.024370447
225	0xbe1d91aa	-0.15387598
226	0xbde6152e	-0.112345085
227	0xbd41dd39	-0.047330115
228	0x3e07fc52	0.13279846
229	0xbbdd0995	-0.006745527
230	0x3bb82376	0.0056194616
231	0xbd6afdfa	-0.057371117
232	0x3c97f65d	0.018550092
233	0x3d25c87b	0.040474396
234	0x3e615032	0.22003248
235	0xbd0b9a94	-0.034082964
236	0x3d4718a2	0.048607476
237	0xbe2de5c5	-0.16982181
238	0x3ce8578c	0.028362058
239	0x3be9fe02	0.007140876
240	0x3dfc864a	0.12330301
241	0x3e3ced70	0.1844995
242	0x3d1edf0c	0.038786933
243	0xbcde3458	-0.027124569
244	0x3de5367a	0.11192031
245	0xbde9cf43	-0.11416485
246	0x3bc6dbed	0.0060686977
247	0x3ddff506	0.109354064
248	0xbe0d5080	-0.1380024
249	0xbc933c7b	-0.017973175
250	0x3e3fd5a8	0.18733847
251	0xbd9397dd	-0.072067
252	0xbda25898	-0.07927054
253	0xbdefd72e	-0.11710964
254	0xbe5aa2b6	-0.21351132
255	0xbccc0861	-0.02490634

batchnorm_layer.weight f4 [256]
0	0x3f7173a1	0.9431706
1	0x3f7ae375	0.9800332
2	0x3f763d9f	0.96187776
3	0x3f72dc74	0.94867635
4	0x3f77a402	0.9673463
5	0x3f7899ad	0.9710949
6	0x3f79e30f	0.9761209
7	0x3f874188	1.0566874
8	0x3f74776c	0.95494723
9	0x3f79b44c	0.97540736
10	0x3f7395eb	0.9515063
11	0x3f823076	1.0171039
12	0x3f7b1d11	0.98091227
13	0x3f623de9	0.8837572
14	0x3f6e5678	0.9310069
15	0x3f6d5ab7	0.92716545
16	0x3f8098be	1.0046613
17	0x3f9369b5	1.1516634
18	0x3f4d5451	0.8020678
19	0x3f6ac24f	0.9170274
20	0x3f807a5d	1.0037342
21	0x3f660ec9	0.8986631
22	0x3f74aafe	0.95573413
23	0x3f82f4be	1.0230939
24	0x3f73d95b	0.95253533
25	0x3f76f14c	0.9646194
26	0x3f60f690	0.87876225
27	0x3f800f40	1.0004654
28	0x3f683475	0.90705043
29	0x3f737419	0.95099026
30	0x3f717f25	0.9433463
31	0x3f598df1	0.8498221
32	0x3f80890f	1.0041827
33	0x3f7d6eea	0.98997366
34	0x3f7c5938	0.98573637
35	0x3f7a5019	0.9777847
36	0x3f8b416c	1.087934
37	0x3f89a893	1.075457
38	0x3f7571e6	0.9587692
39	0x3f8539f3	1.040831
40	0x3f864af9	1.049163
41	0x3f6439ee	0.89150894
42	0x3f7759aa	0.9662119
43	0x3f6ea1f9	0.932159
44	0x3f6ce126	0.9253105
45	0x3f629a35	0.8851655
46	0x3f64d4a3	0.8938696
47	0x3f81dc02	1.0145266
48	0x3f7f0b42	0.99626553
49	0x3f6d70a3	0.92749995
50	0x3f7018f3	0.9378807
51	0x3f8020f7	1.001006
52	0x3f705564	0.93880296
53	0x3f699a03	0.9125063
54	0x3f690b0c	0.9103248
55	0x3f7e094f	0.99232954
56	0x3f788f00	0.970932
57	0x3f66d782	0.9017259
58	0x3f53f0bc	0.82789207
59	0x3f67bca0	0.90522194
60	0x3f715f89	0.942864
61	0x3f6a47bc	0.9151571
62	0x3f6d2739	0.92637974
63	0x3f423c37	0.7587313
64	0x3f83a522	1.028477
65	0x3f8350f9	1.0259086
66	0x3f7330b0	0.94996166
67	0x3f5b15be	0.8558005
68	0x3f4fa7e0	0.8111553
69	0x3f6c63f9	0.92340046
70	0x3f6788b8	0.9044299
71	0x3f5942ef	0.8486776
72	0x3f6ea30d	0.93217546
73	0x3f5fc1a2	0.87404835
74	0x3f8956bd	1.0729595
75	0x3f7b2d8b	0.9811637
76	0x3f644b7d	0.89177686
77	0x3f7eee97	0.9958281
78	0x3f72e2d3	0.94877356
79	0x3f67853f	0.9043769
80	0x3f7014a7	0.9378151
81	0x3f8284bf	1.0196761
82	0x3f7d88f7	0.99037117
83	0x3f763f1a	0.96190035
84	0x3f7614e8	0.9612565
85	0x3f612142	0.8794137
86	0x3f82d7f6	1.0222156
87	0x3f7bb51e	0.9832324
88	0x3f7363fc	0.9507444
89	0x3f639eaa	0.8891398
90	0x3f78fa33	0.97256774
91	0x3f8d87e7	1.1057099
92	0x3f805a71	1.00276
93	0x3f68c856	0.9093069
94	0x3f800d5b	1.0004076
95	0x3f6f974f	0.93590254
96	0x3f627856	0.8846487
97	0x3f6f330b	0.9343726
98	0x3f77bf71	0.9677649
99	0x3f7a37cc	0.9774139
100	0x3f94c796	1.1623409
101	0x3f7532f9	0.95780903
102	0x3f609585	0.8772815
103	0x3f80ff78	1.0077963
104	0x3f6c804a	0.92383254
105	0x3f6f416c	0.934592
106	0x3f676460	0.90387535
107	0x3f824bb2	1.017935
108	0x3f7176eb	0.9432208
109	0x3f703c62	0.93842137
110	0x3f7b96ec	0.98277164
111	0x3f80d254	1.0064187
112	0x3f8132a9	1.0093585
113	0x3f802e63	1.0014156
114	0x3f6fcc48	0.93671083
115	0x3f7b08af	0.98060125
116	0x3f74d500	0.9563751
117	0x3f7939b9	0.973537
118	0x3f8a3f1a	1.0800507
119	0x3f81504d	1.0102631
120	0x3f788076	0.97071016
121	0x3f824ef4	1.0180345
122	0x3f85208e	1.040056
123	0x3f6e3522	0.93049824
124	0x3f906232	1.1279967
125	0x3f63d0ee	0.88990676
126	0x3f5c28f0	0.85999966
127	0x3f656000	0.8959961
128	0x3f73679e	0.9507998
129	0x3f83cf71	1.0297681
130	0x3f71c55c	0.9444177
131	0x3f79ebe8	0.9762559
132	0x3f89f58a	1.0778058
133	0x3f6e4671	0.93076235
134	0x3f7c73e5	0.9861434
135	0x3f81f467	1.0152711
136	0x3f82c6ae	1.0216882
137	0x3f7b2e9d	0.98118
138	0x3f8488a6	1.0354202
139	0x3f65fa0a	0.89834654
140	0x3f62bf4e	0.8857316
141	0x3f597430	0.84942913
142	0x3f81f2d4	1.015223
143	0x3f45992f	0.77186865
144	0x3f52f836	0.8240999
145	0x3f757780	0.9588547
146	0x3f82f834	1.0231996
147	0x3f71685b	0.9429986
148	0x3f7547cc	0.9581268
149	0x3f86518a	1.0493634
150	0x3f6ecdd9	0.9328285
151	0x3f56df74	0.8393471
152	0x3f6856dc	0.90757537
153	0x3f672294	0.9028714
154	0x3f44e277	0.7690806
155	0x3f68e0d5	0.90968066
156	0x3f6b2682	0.91855633
157	0x3f6ef6c2	0.9334527
158	0x3f6c1278	0.9221568
159	0x3f856ff1	1.0424787
160	0x3f638728	0.8887811
161	0x3f7cab8a	0.9869925
162	0x3f7da47e	0.9907912
163	0x3f703944	0.9383738
164	0x3f728b91	0.9474421
165	0x3f9de8dc	1.2336688
166	0x3f76c9d0	0.9640169
167	0x3f78cb98	0.9718566
168	0x3f6e2eaa	0.93039954
169	0x3f70ab21	0.9401112
170	0x3f7b056a	0.98055136
171	0x3f7590a0	0.95923805
172	0x3f84d1b3	1.0376495
173	0x3f7ef7cc	0.9959686
174	0x3f45055e	0.76961315
175	0x3f70d01c	0.9406755
176	0x3f6d7cc1	0.92768484
177	0x3f783452	0.96954834
178	0x3f4a8355	0.79106647
179	0x3f81bfe1	1.0136682
180	0x3f8ac3f2	1.0841048
181	0x3f6edef0	0.93308926
182	0x3f8a2534	1.0792603
183	0x3f5dbf56	0.8662008
184	0x3f7b74dc	0.9822519
185	0x3f71b785	0.94420654
186	0x3f85ed8d	1.046312
187	0x3f906bbb	1.1282877
188	0x3f582f84	0.84447503
189	0x3f6e70b6	0.93140733
190	0x3f713c75	0.94232875
191	0x3f74c920	0.9561939
192	0x3f6b0d98	0.9181762
193	0x3f4f139f	0.80889314
194	0x3f7f807e	0.9980544
195	0x3f7e7f33	0.9941284
196	0x3f84199b	1.0320314
197	0x3f7a1d34	0.9770081
198	0x3f85fc1b	1.0467561
199	0x3f7e5599	0.9934936
200	0x3f87353d	1.0563122
201	0x3f776b6d	0.96648294
202	0x3f68c6be	0.90928257
203	0x3f65a6de	0.89707744
204	0x3f7561e0	0.9585247
205	0x3f6ee28b	0.9331443
206	0x3f712488	0.9419637
207	0x3f90af44	1.1303487
208	0x3f6aae17	0.9167189
209	0x3f8d50a2	1.1040232
210	0x3f573d7c	0.8407819
211	0x3f661923	0.89882106
212	0x3f88a4de	1.0675313
213	0x3f76b25c	0.96365905
214	0x3f71cbed	0.9445179
215	0x3f7b1912	0.9808513
216	0x3f4b863b	0.79501694
217	0x3f888080	1.0664215
218	0x3f86ebb1	1.0540677
219	0x3f6ef21d	0.93338186
220	0x3f6cc634	0.92489934
221	0x3f7e5fae	0.99364746
222	0x3f6546e5	0.895613
223	0x3f768c84	0.9630816
224	0x3f63a73b	0.8892705
225	0x3f81abee	1.0130594
226	0x3f6c3b39	0.92277867
227	0x3f8280fb	1.0195612
228	0x3f789ade	0.9711131
229	0x3f870139	1.0547248
230	0x3f681e8d	0.90671617
231	0x3f76e19b	0.96437997
232	0x3f7c9f8a	0.9868094
233	0x3f5bce86	0.85862005
234	0x3f7aa195	0.97902805
235	0x3f59ab4d	0.8502701
236	0x3f6bd58e	0.92122734
237	0x3f83eb97	1.0306271
238	0x3f7c51d4	0.9856236
239	0x3f6a5ab8	0.91544676
240	0x3f7295f6	0.9476007
241	0x3f60675c	0.87657714
242	0x3f7495b1	0.9554091
243	0x3f7de983	0.99184436
244	0x3f67943b	0.90460557
245	0x3f7f89b2	0.9981948
246	0x3f7e72a3	0.9939367
247	0x3f5fcfe9	0.8742662
248	0x3f7e1fa7	0.9926705
249	0x3f86944c	1.0514007
250	0x3f768884	0.96302056
251	0x3f70d59d	0.9407595
252	0x3f73c68e	0.95224845
253	0x3f75bd62	0.959921
254	0x3f764a30	0.9620695
255	0x3f987e6b	1.191358

batchnorm_layer.bias f4 [256]
0	0xbd56dacd	-0.05245476
1	0xbc7afa11	-0.01531841
2	0x3c2f61ce	0.010704471
3	0x3b865d22	0.0041004578
4	0x3dd575f9	0.10422892
5	0xbd93c0be	-0.07214497
6	0xbd89bd7b	-0.06725594
7	0x3e2131c4	0.1574164
8	0xbde7833e	-0.11304329
9	0x3dd915fd	0.10599897
10	0x3ce01b3f	0.027356742
11	0x3e047e0b	0.12938707
12	0xbe04ca4a	-0.12967792
13	0xbd903fb9	-0.07043404
14	0xbdc9b074	-0.09848109
15	0xbe355247	-0.17707168
16	0x3d4e369f	0.05034506
17	0xbc8ecfed	-0.017433131
18	0xbd945bb6	-0.07244055
19	0x3d085af7	0.033289876
20	0x3d83fa6b	0.06444248
21	0xbe118d47	-0.1421405
22	0xbcd5b1f7	-0.026085837
23	0xbc2803f6	-0.010254851
24	0xbd823a86	-0.06358819
25	0xbdc70b3b	-0.09718939
26	0xbc45db95	-0.012076278
27	0x3d8581ee	0.06518923
28	0xbdfd9242	-0.12381412
29	0xbd12035c	-0.035647735
30	0xbbd12aa4	-0.006383257
31	0xbdb2c635	-0.08729211
32	0xbd7c6d9c	-0.06162797
33	0x3dd0227d	0.10162828
34	0xbd6509cf	-0.055917557
35	0x3de7996a	0.11308558
36	0xbd206e40	-0.039167643
37	0xbdb7e8a7	-0.08979922
38	0xbbed8844	-0.00724891
39	0xbcc164d8	-0.023607656
40	0x3d84518b	0.064608656
41	0xbda40ae0	-0.08009887
42	0xbd069f88	-0.032866985
43	0xbd3a69ff	-0.045511242
44	0xbdc95245	-0.09830145
45	0xbdb6e3fa	-0.08930202
46	0xbd5c1f4e	-0.053740792
47	0xbd26e63c	-0.040746912
48	0x3e352204	0.17688757
49	0xbe1abadc	-0.15110344
50	0xbd918049	-0.071045466
51	0x3d48179b	0.048850637
52	0x3d6f4fdb	0.058425765
53	0xbdb73d8f	-0.08947288
54	0x3a24790f	0.00062741427
55	0x3d464d13	0.048413347
56	0x3d607bd1	0.05480558
57	0xbddaa989	-0.106768675
58	0xbe5de2ef	-0.216686
59	0xbd986812	-0.07441725
60	0xbe017281	-0.12641336
61	0xbd64a588	-0.055821925
62	0xbdfe6e09	-0.12423331
63	0xbd25cbb1	-0.04047746
64	0x3dcc250d	0.099680044
65	0x3cd4cdb0	0.025976986
66	0x3ca690a8	0.02033265
67	0xbe3d4ab2	-0.18485525
68	0xbe475443	-0.19465737
69	0xbdaea519	-0.08527584
70	0xbe332a98	-0.17496717
71	0xbe3a4de9	-0.18193783
72	0x3d112a53	0.035440754
73	0xbdd6c45e	-0.10486673
74	0x3d63bb56	0.05559858
75	0xbdb129f3	-0.08650579
76	0xbe3edbb0	-0.18638492
77	0x3d80a721	0.06281877
78	0xbdbcb0bb	-0.09213396
79	0xbe102fc6	-0.14080724
80	0xbcf0c50d	-0.029390836
81	0x3da2394b	0.07921084
82	0x3ddcd5d5	0.10782973
83	0x3dbed53e	0.093180165
84	0xbc63a0b8	-0.013893299
85	0xbdc742fe	-0.097295746
86	0x3cf11fe8	0.02943416
87	0xbcb1eb58	-0.021718666
88	0xbcf65f74	-0.030074812
89	0x380b45c5	3.320516e-05
90	0x3c20c245	0.009811942
91	0x3db895ae	0.09012924
92	0x3d88ab9c	0.06673357
93	0xbdea8785	-0.114516295
94	0xbc5d0e51	-0.013492183
95	0x3c59d969	0.0132964635
96	0xbde079c4	-0.10960725
97	0xbcb56d76	-0.022146922
98	0x3d09d4b4	0.033650115
99	0x3d5cc788	0.053901225
100	0x3dd7b898	0.10533255
101	0xbc5bd52f	-0.013417526
102	0xbdaf77e4	-0.08567789
103	0xbdc9f7c2	-0.09861709
104	0xbdc55c57	-0.09636753
105	0xbd08b9c7	-0.033380296
106	0xbe27ad32	-0.16374663
107	0x3da7dfb9	0.081969686
108	0xbd8d72cc	-0.069066614
109	0xbdc33751	-0.09532035
110	0x3d942b29	0.07234795
111	0x3d4faf82	0.050704487
112	0xbcdb868a	-0.026797552
113	0xbde8da8e	-0.11369811
114	0x3d225c8d	0.039639045
115	0x3d9a10c5	0.0752273
116	0x3d3fbc4f	0.046810444
117	0x3c3daa64	0.011576269
118	0x3ba90cce	0.005158997
119	0x3cf33eb5	0.029692987
120	0x3ce99c24	0.028516836
121	0x3da7bdef	0.08190524
122	0xbbeb25eb	-0.007176151
123	0xbe072c52	-0.132005
124	0x3ced57bb	0.028972497
125	0xbd6d3b4b	-0.057917874
126	0xbe4d0a81	-0.20023538
127	0xbdb001f4	-0.085941225
128	0x3d64b160	0.05583322
129	0x3e0ec05a	0.13940564
130	0xbc931655	-0.017954985
131	0xbc460a1d	-0.012087372
132	0xbd3613ff	-0.044452664
133	0xbb835563	-0.0040079816
134	0x3e0209ef	0.12699102
135	0x3e14617d	0.14490314
136	0x3dba8a1d	0.09108374
137	0xbdfdd3ac	-0.12393889
138	0xbce7bb08	-0.028287426
139	0xbe118021	-0.14209034
140	0xbe602034	-0.21887285
141	0xbdee2640	-0.11628389
142	0x3ddeae25	0.10873059
143	0xbe541ae8	-0.20713389
144	0xbd5e5038	-0.05427572
145	0xbcee74bb	-0.029108396
146	0x3d8d6e65	0.06905822
147	0xbd7e77ba	-0.0621259
148	0x3dc801d4	0.09765974
149	0xbb89745a	-0.0041947784
150	0xbcf44100	-0.02981615
151	0xbd8769a2	-0.06611945
152	0xbe38b1f3	-0.18036632
153	0x3dbe1520	0.09281373
154	0xbe401311	-0.18757273
155	0xbbcbc086	-0.006218019
156	0x3d1ba2b7	0.037996974
157	0xbc27916b	-0.010227541
158	0xbd7a5291	-0.061113898
159	0xbd3f4fc9	-0.04670695
160	0xbdbe388b	-0.092881285
161	0x3da567a7	0.08076411
162	0x3cfc8966	0.030827235
163	0xbdca5477	-0.09879392
164	0xbdf87400	-0.121315
165	0x3da2ea12	0.079548016
166	0x3d1efb16	0.038813673
167	0x3b7cdc53	0.0038583472
168	0xbe47a957	-0.19498192
169	0xbd2098e0	-0.039208293
170	0x3ca668d5	0.02031366
171	0xbc42ef93	-0.011897939
172	0xbccc0626	-0.024905276
173	0xbdda143d	-0.106483914
174	0xbde168e7	-0.11006337
175	0xbd82b79d	-0.06382678
176	0xbba4b996	-0.0050270064
177	0xbd65d001	-0.05610657
178	0xbddc2a0a	-0.10750206
179	0xbdcdd58c	-0.100504965
180	0x3d6b96b1	0.057516757
181	0xbd0ac47a	-0.03387878
182	0x3dc2c6e7	0.09510594
183	0xbe02080a	-0.12698379
184	0xbd8b9696	-0.06815831
185	0x3a2f64d5	0.00066907454
186	0x3dd0105d	0.10159371
187	0x3dd48096	0.10376088
188	0xbde9d28c	-0.11417112
189	0x3d0320c3	0.032013666
190	0xbe16517e	-0.14679524
191	0xbde7b3df	-0.113136046
192	0x3dd3bdd4	0.10338941
193	0xbd4a13ac	-0.049335167
194	0xbc99cb0f	-0.018773584
195	0x3b354885	0.0027661633
196	0xbbcc061c	-0.006226314
197	0x3d7ac27d	0.061220635
198	0x3e00ef53	0.12591295
199	0x3daf8c99	0.08571739
200	0x3dffff44	0.1249986
201	0x3d91b2f6	0.07114212
202	0xbd31b8ec	-0.043389246
203	0xbe0a7d63	-0.13524394
204	0xbb180fba	-0.0023202733
205	0x3d4786eb	0.048712652
206	0xbd9a7e43	-0.07543614
207	0xbc440a8b	-0.011965404
208	0x3d874801	0.066055305
209	0x3d712f8b	0.05888323
210	0xbdf5f4d3	-0.12009587
211	0xbd6dc716	-0.05805119
212	0xbbdbff95	-0.0067138174
213	0xbda251c4	-0.07925752
214	0xbbebabe2	-0.007192121
215	0xbc8c495a	-0.01712482
216	0xbe43d319	-0.19123496
217	0xbdce3ca6	-0.100701615
218	0x3da3676f	0.07978713
219	0xbcf2bc9e	-0.029630955
220	0xbd782253	-0.06057961
221	0xbdfdb5ab	-0.12388166
222	0xbd540932	-0.05176658
223	0xbd8f72b8	-0.07004303
224	0xbd8b02b5	-0.06787626
225	0x3d1f75fd	0.03893088
226	0xbd284609	-0.041082416
227	0xbca2bed0	-0.019866377
228	0x3c868064	0.016418643
229	0xbd5672bb	-0.05235551
230	0x3d686021	0.0567323
231	0xbc8f98ed	-0.017528975
232	0x3d0474e3	0.032338034
233	0xbe428bdf	-0.18998669
234	0x3e02eef0	0.1278646
235	0xbda40ba6	-0.08010034
236	0xbd08b5cf	-0.03337651
237	0xbc34ffcb	-0.011047314
238	0x3d8c243f	0.06842851
239	0xbd00f654	-0.031484917
240	0x3d215259	0.039385173
241	0xbb9bc0d5	-0.004753212
242	0xbd098d67	-0.033582117
243	0xbca64008	-0.020294204
244	0xbdc186cc	-0.094495386
245	0x3dcd4bca	0.10024221
246	0xbcdb72f6	-0.026788216
247	0xbd9b8aa1	-0.07594801
248	0x3c4f48bc	0.012651619
249	0xbd0244e7	-0.03180399
250	0x3d8067e8	0.062698185
251	0xbd7360cb	-0.05941848
252	0xbce71029	-0.028205948
253	0xbd23c2ac	-0.039980575
254	0xbdd45ae8	-0.103689015
255	0x3e6a368a	0.22872368

batchnorm_layer.running_mean f4 [256]
0	0x3d8a1cc4	0.06743768
1	0x3dd749a3	0.10512092
2	0x3ec00e48	0.37510896
3	0x3e856bc1	0.26058772
4	0x3f16d2d0	0.58915424
5	0x3d5b6582	0.053563602
6	0x3d97bcf6	0.07409088
7	0x3c65f8ec	0.014036398
8	0x3e3a1ad9	0.18174304
9	0x3edfdc4b	0.43722758
10	0x3befa6ae	0.007313571
11	0x3f362f19	0.71165615
12	0x3d16f602	0.036855705
13	0x3e593d36	0.21214756
14	0x3df69d16	0.120416805
15	0x3de8bee3	0.11364534
16	0x3e61b6bd	0.22042365
17	0x3de026cf	0.10944902
18	0x37b5a875	2.1655325e-05
19	0x3f110888	0.5665364
20	0x3b605af5	0.0034233902
21	0x3d447e54	0.04797204
22	0x3e3859e2	0.18003038
23	0x3e25de66	0.1619812
24	0x3d9bbc85	0.076043166
25	0x3ec7088d	0.3887371
26	0x3ece093f	0.4024143
27	0x3f15968c	0.5843284
28	0x3e3eae81	0.18621255
29	0x3eea3ae9	0.4574807
30	0x3ef9dd32	0.4880157
31	0x3e1f96bc	0.15584844
32	0x3e24d748	0.16097748
33	0x3ef77fdd	0.4833974
34	0x3e24543c	0.16047758
35	0x3efaeeca	0.49010307
36	0x3ea863dd	0.3288869
37	0x3c9c33eb	0.019067725
38	0x3ef7dae9	0.48409203
39	0x3ccac915	0.024754087
40	0x3ed6ecfd	0.41977683
41	0x3ea2446e	0.31692833
42	0x3f02f416	0.51153696
43	0x3f053d48	0.5204663
44	0x3daf1ccf	0.08550417
45	0x3eae76dd	0.3407506
46	0x3ee692c8	0.4503386
47	0x3d288212	0.04113967
48	0x3f933cae	1.1502893
49	0x3ce5c836	0.02804957
50	0x3e2e1210	0.16999078
51	0x3ef4da87	0.47822973
52	0x3e8e6e0b	0.2781833
53	0x3e1ece97	0.15508495
54	0x3d5dd780	0.054160595
55	0x3e9b97ff	0.303894
56	0x3f26b742	0.6512338
57	0x3eedc4a8	0.464391
58	0x3c5708c0	0.013124645
59	0x3eb455ee	0.3522181
60	0x3d32284e	0.04349547
61	0x3f22f259	0.63651043
62	0x3b4f1e05	0.0031603586
63	0x3cce2187	0.025162471
64	0x3f28188a	0.65662444
65	0x3c86da8c	0.016461633
66	0x3f259cd7	0.64692444
67	0x3cde3049	0.027122634
68	0x3db55535	0.088541426
69	0x3e427501	0.18989946
70	0x3e2d8cc7	0.16948234
71	0x3e10f238	0.14154899
72	0x3f148461	0.58014494
73	0x3d29269d	0.04129659
74	0x3d4db804	0.05022432
75	0x3e0fc0f8	0.14038455
76	0x3e129dde	0.14318034
77	0x3c2fabb6	0.010722091
78	0x3e3f115f	0.1865897
79	0x3e40f860	0.18844748
80	0x3e2b1650	0.1670773
81	0x3ee4d79c	0.44695747
82	0x3ee5d10c	0.44886053
83	0x3ef5f3a5	0.4803745
84	0x3f250fd0	0.6447725
85	0x3d9b7ce3	0.075921796
86	0x3f0dd344	0.5540049
87	0x3ea9bbdc	0.33151138
88	0x3e480bf0	0.19535804
89	0x3f3e6590	0.7437372
90	0x3d1c2f72	0.038131185
91	0x3d20bc3c	0.039242014
92	0x3ccd4c80	0.025060892
93	0x3d7897d2	0.060691662
94	0x3e28e3db	0.1649317
95	0x3eeb7916	0.4599082
96	0x3e51182c	0.20419377
97	0x3ea868cd	0.32892457
98	0x3f21693b	0.63051194
99	0x3eb9753c	0.36222255
100	0x3f11659f	0.56795686
101	0x3f46637a	0.7749554
102	0x3e1acd4e	0.1511738
103	0x3e6cf078	0.23138607
104	0x3dfd5c99	0.12371177
105	0x3e955529	0.29166535
106	0x3cc63ede	0.0241999
107	0x3f27791f	0.6541919
108	0x3dd88089	0.10571391
109	0x3e4bc6da	0.19900075
110	0x3f40cddf	0.75314134
111	0x3d5220d6	0.051300846
112	0x3d117046	0.035507463
113	0x3e66f943	0.22556023
114	0x3f3cca39	0.7374607
115	0x3f056564	0.52107835
116	0x3e9912ed	0.29897252
117	0x3e8b9dbe	0.27268785
118	0x3e8906ca	0.26762992
119	0x3da7c48d	0.08191786
120	0x3e19ef5e	0.15032718
121	0x3f01457b	0.50496644
122	0x3eb4b3fb	0.35293564
123	0x3c3a7564	0.011380527
124	0x3db6fda9	0.089351006
125	0x3957ead8	0.00020591484
126	0x3e20ba51	0.15696074
127	0x3d3ab576	0.04558321
128	0x3f32d446	0.69855154
129	0x3f1138af	0.5672712
130	0x3e0c36fb	0.13692848
131	0x3f616055	0.88037616
132	0x3e7e5747	0.24837981
133	0x3f551f90	0.83251286
134	0x3f78bb06	0.97160375
135	0x3f4e52e5	0.80595237
136	0x3eb91210	0.36146593
137	0x3f02f01c	0.5114763
138	0x3d3eb626	0.04656043
139	0x3da89f52	0.08233513
140	0x3d76ab5d	0.06022202
141	0x3cf0497c	0.029331915
142	0x3f793fec	0.9736316
143	0x3e435059	0.19073619
144	0x3d056cb6	0.032574378
145	0x3e84b802	0.25921637
146	0x3e9fc469	0.31204537
147	0x3caa3419	0.020776795
148	0x3f01d53b	0.5071599
149	0x3ce81574	0.028330542
150	0x3d6f29c1	0.05838943
151	0x3cc9022c	0.024537168
152	0x3dc42972	0.095782176
153	0x3c0912f9	0.00836634
154	0x3c725a9e	0.014792113
155	0x38f2ee82	0.00011583885
156	0x3f6dd0ce	0.92896736
157	0x3e966f36	0.29381722
158	0x3ee7ef35	0.45299688
159	0x3eeb0be2	0.45907503
160	0x3e488be3	0.19584613
161	0x3f042df9	0.5163265
162	0x3eafd79a	0.34344178
163	0x3cdae651	0.026721152
164	0x3ec59a7a	0.3859442
165	0x3e8a27b0	0.26983404
166	0x3ec193a6	0.3780796
167	0x3f0408f6	0.51576173
168	0x3df2694e	0.118364915
169	0x3ee34514	0.4438864
170	0x3ed435e3	0.41447362
171	0x3e1ebf38	0.15502632
172	0x3e81aa97	0.25325462
173	0x3ddf7d08	0.1091252
174	0x3d1912dd	0.037371505
175	0x3dd361eb	0.10321411
176	0x38489442	4.782179e-05
177	0x3d50611e	0.05087387
178	0x3d1a60a3	0.037689816
179	0x3dd42229	0.10358078
180	0x3e9c9fab	0.30590567
181	0x3f106966	0.56410825
182	0x3e70b255	0.23505528
183	0x3e4b5a2a	0.19858614
184	0x3c952e58	0.018210575
185	0x3ef71ae9	0.48262718
186	0x3ef6a342	0.4817143
187	0x3beaff60	0.0071715564
188	0x3d22edb0	0.039777458
189	0x3ec1b6fd	0.3783492
190	0x3e3a7356	0.1820806
191	0x3e1956b5	0.14974482
192	0x3d81e9a9	0.06343395
193	0x38d948fc	0.00010360961
194	0x3dd5c134	0.10437241
195	0x3ef12eed	0.47106114
196	0x3e1bddc8	0.15221322
197	0x3ed6513f	0.4185886
198	0x3f328338	0.69731474
199	0x3f07163f	0.5276832
200	0x3d38eac2	0.045145757
201	0x3f715518	0.9427047
202	0x3edba2b3	0.42897567
203	0x3de7a6bc	0.11311099
204	0x3e7a510b	0.24444978
205	0x3f552e1e	0.83273494
206	0x3dd4d86a	0.1039284
207	0x3cbc622a	0.022996027
208	0x3eea56a8	0.45769238
209	0x3e4773b4	0.19477731
210	0x3e3cadc2	0.18425658
211	0x3e95019b	0.29102787
212	0x3cffd4c9	0.031229394
213	0x3ddbb7d3	0.10728421
214	0x3eb5343c	0.35391414
215	0x3ec582b6	0.38576287
216	0x3d24fa0d	0.04027753
217	0x3e57ba37	0.21067129
218	0x3e8a2c71	0.2698703
219	0x3eedba6a	0.46431285
220	0x3e87a91f	0.26496217
221	0x392dbef4	0.00016569701
222	0x3e89ce68	0.26915288
223	0x3e5812d7	0.21100937
224	0x3e799248	0.24372208
225	0x3d6ccda5	0.057813305
226	0x3ed695b8	0.419111
227	0x3f466157	0.7749228
228	0x3e90598d	0.28193322
229	0x3e3027c8	0.17202675
230	0x3f148b83	0.5802538
231	0x3f28abd0	0.65887165
232	0x3eabc0ef	0.33545634
233	0x3d47b741	0.04875875
234	0x3f7648d9	0.96204907
235	0x3eaa0ab7	0.332113
236	0x3f185c0e	0.59515464
237	0x3dd0ad0e	0.101892576
238	0x3e331a22	0.17490438
239	0x3ef964bb	0.48709664
240	0x3f4ed592	0.8079463
241	0x3e88ef88	0.26745248
242	0x3ed574f0	0.4169078
243	0x3e2c7200	0.16840363
244	0x3d95c67c	0.073132485
245	0x3d24a27a	0.040194012
246	0x3e0031f1	0.12519051
247	0x3efa2961	0.48859695
248	0x3d612fe3	0.05497731
249	0x3ebd613b	0.36988243
250	0x3f5012fe	0.8127898
251	0x3ead5ad7	0.33858368
252	0x3d8f9a1c	0.07011816
253	0x3d5acd17	0.053418245
254	0x3e026b3f	0.12736224
255	0x3c662b25	0.014048372

batchnorm_layer.running_var f4 [256]
0	0x3cba45b7	0.02273832
1	0x3cd1e439	0.02562152
2	0x3e4e9c5b	0.20176832
3	0x3e09e37e	0.13465688
4	0x3e8c3747	0.27385923
5	0x3c67d676	0.014150253
6	0x3cbc73b3	0.023004388
7	0x3ae2e77f	0.0017311423
8	0x3d46bddc	0.048520908
9	0x3e1651be	0.1467962
10	0x3aecb21b	0.0018058451
11	0x3e52af83	0.20574765
12	0x3c691fcb	0.014228771
13	0x3df1d914	0.118089825
14	0x3d48edc2	0.04905487
15	0x3d349137	0.0440838
16	0x3de90e85	0.113797225
17	0x3d000fe9	0.031265173
18	0x36ae634e	5.1971647e-06
19	0x3e6f7596	0.23384699
20	0x3a051f42	0.0005078205
21	0x3c8dc3bb	0.017305246
22	0x3dc1d23f	0.094639294
23	0x3da229ca	0.07918127
24	0x3ccdfea8	0.025145844
25	0x3e26a70c	0.16274661
26	0x3e3a7e13	0.18212156
27	0x3e7a792f	0.2446029
28	0x3deced8d	0.11568747
29	0x3e171fae	0.14758179
30	0x3e732e32	0.23748091
31	0x3d8862ac	0.06659445
32	0x3d8f3ef4	0.06994429
33	0x3eac64b8	0.33670592
34	0x3d1948b9	0.03742287
35	0x3dbc0b5f	0.09181856
36	0x3dfc3384	0.12314513
37	0x3b61b43a	0.0034439699
38	0x3e7b1d4e	0.24522898
39	0x3b8cb60d	0.004294163
40	0x3e77ee9f	0.2421212
41	0x3db6000f	0.0888673
42	0x3ead1219	0.3380287
43	0x3eb193e3	0.3468314
44	0x3d201f65	0.03909244
45	0x3e1b6bbb	0.15177815
46	0x3e234652	0.15944794
47	0x3c1185f7	0.008882037
48	0x3f506f9c	0.814203
49	0x3be7bc92	0.00707204
50	0x3d6e5e74	0.058195546
51	0x3e92ba63	0.28657827
52	0x3e070e29	0.13188995
53	0x3d859bbc	0.065238446
54	0x3c934e31	0.01798162
55	0x3e2d17a9	0.16903557
56	0x3f018237	0.5058932
57	0x3e15f6a0	0.14644861
58	0x3b5da9cd	0.0033823133
59	0x3e211bcf	0.15733264
60	0x3c915070	0.01773855
61	0x3e9b9f5e	0.30395025
62	0x39f925cf	0.0004752115
63	0x3c5d0919	0.013490939
64	0x3f101356	0.56279504
65	0x3aef4feb	0.001825807
66	0x3f1da567	0.6158051
67	0x3c2e7f85	0.01065052
68	0x3d4b8d24	0.04969515
69	0x3dbb0ae1	0.09132934
70	0x3d48ece0	0.049054027
71	0x3d901c6c	0.07036671
72	0x3e258227	0.1616293
73	0x3c805165	0.015663812
74	0x3c534674	0.012895215
75	0x3cfacf4d	0.030616427
76	0x3d6dfa8b	0.058100265
77	0x3b70b8e6	0.0036731302
78	0x3daeb548	0.085306704
79	0x3dd028d5	0.10164038
80	0x3d98bfc7	0.074584536
81	0x3e950afb	0.2910994
82	0x3e5af542	0.21382621
83	0x3e1af0e9	0.15130962
84	0x3e8b7af7	0.27242252
85	0x3cb29334	0.021798708
86	0x3daed355	0.08536402
87	0x3e5493f3	0.20759563
88	0x3d776f2c	0.060408756
89	0x3edf7a31	0.43647912
90	0x3bde7330	0.0067886338
91	0x3bf1edf5	0.007383103
92	0x3b7b0f50	0.0038308688
93	0x3cc2f9e8	0.023800805
94	0x3d8ea8b6	0.06965773
95	0x3e8ff3da	0.2811573
96	0x3dc23fb2	0.09484805
97	0x3d9379a2	0.07200934
98	0x3ea907d2	0.3301378
99	0x3e5077e8	0.2035824
100	0x3d3beb7e	0.04587888
101	0x3e97b616	0.29631108
102	0x3d401d12	0.046902724
103	0x3da9c5f7	0.08289712
104	0x3d0ff17b	0.035142403
105	0x3e697453	0.2279828
106	0x3be3dc2e	0.0069537377
107	0x3eaf4801	0.34234622
108	0x3cfa4c46	0.030553948
109	0x3dcbfddf	0.099605314
110	0x3f1f4cd5	0.6222661
111	0x3c262deb	0.010142784
112	0x3bf0b297	0.0073455083
113	0x3e06215d	0.13098665
114	0x3ec62438	0.38699508
115	0x3e66dc6a	0.22545019
116	0x3def9136	0.11697619
117	0x3e2f3229	0.17108978
118	0x3da8fc7b	0.08251282
119	0x3cfdb9e4	0.030972429
120	0x3d51a907	0.051186588
121	0x3e58a309	0.21155943
122	0x3e6a4f5d	0.22881837
123	0x3b16e724	0.0023025954
124	0x3ca0d7d4	0.019634165
125	0x38245fae	3.9189756e-05
126	0x3d6944bd	0.05695032
127	0x3c7b4fa6	0.015338814
128	0x3ef7c64f	0.48393485
129	0x3e1d963d	0.15389343
130	0x3d6a7be0	0.057247043
131	0x3f0b4d60	0.5441494
132	0x3de7387a	0.11290069
133	0x3f3a20fa	0.7270657
134	0x3ed69e72	0.4191776
135	0x3ef06c65	0.46957698
136	0x3e07e5b1	0.13271214
137	0x3e391c65	0.18077238
138	0x3c1e36ab	0.009656589
139	0x3d08d799	0.033408735
140	0x3cbefc5e	0.023313697
141	0x3bf01036	0.0073261512
142	0x3f7e6321	0.9937001
143	0x3dd1a5e9	0.10236723
144	0x3c36b7d3	0.011152226
145	0x3dc7d665	0.097576894
146	0x3e15c8a0	0.14627314
147	0x3b30baff	0.0026966927
148	0x3dfe31aa	0.124118164
149	0x3b57be94	0.003291999
150	0x3c85c107	0.016327394
151	0x3bd487de	0.006485923
152	0x3d313649	0.04326466
153	0x3acb8a41	0.0015528874
154	0x3ba47eed	0.0050200135
155	0x37908572	1.7228278e-05
156	0x3f0a7bf8	0.5409541
157	0x3dcd3450	0.100197434
158	0x3e0d7ac4	0.13816363
159	0x3e147958	0.14499414
160	0x3df68b96	0.12038343
161	0x3e6cc068	0.23120272
162	0x3e6865f3	0.2269514
163	0x3b9f990f	0.004870541
164	0x3e8a5e50	0.2702508
165	0x3dd5ffec	0.10449204
166	0x3e7c97df	0.24667309
167	0x3ee4c185	0.44678894
168	0x3d37c184	0.044862285
169	0x3e8473df	0.25869653
170	0x3e8ba747	0.2727606
171	0x3d09d5b1	0.033651058
172	0x3df31d2a	0.11870797
173	0x3d108298	0.035280794
174	0x3c781047	0.0151406
175	0x3cfa76be	0.030574199
176	0x37d49b6b	2.5344742e-05
177	0x3c9539f5	0.018216113
178	0x3c8bb7cf	0.01705542
179	0x3d52c426	0.051456593
180	0x3d5748c2	0.05255962
181	0x3ed28a30	0.41121054
182	0x3dc53b12	0.096304074
183	0x3de13964	0.109972745
184	0x3b473fe4	0.0030403072
185	0x3e4250a7	0.18976079
186	0x3d971354	0.073767334
187	0x3a9b6cb5	0.0011857959
188	0x3c2c3c0f	0.010512366
189	0x3e230ea7	0.15923558
190	0x3d95b0ec	0.07309136
191	0x3d786e2f	0.060651954
192	0x3c8e13e1	0.017343463
193	0x37df7dca	2.6642247e-05
194	0x3d00379f	0.031303044
195	0x3e2857a7	0.16439687
196	0x3d283a40	0.041071177
197	0x3e10371f	0.14083527
198	0x3f30ad23	0.69014186
199	0x3e895f23	0.26830396
200	0x3c032358	0.008004032
201	0x3f40292c	0.75062823
202	0x3ea0df7b	0.31420502
203	0x3cf7f644	0.030268796
204	0x3d89e8e8	0.067338765
205	0x3e905a9e	0.28194135
206	0x3ceffa8d	0.029294277
207	0x3b98319c	0.004644586
208	0x3e40d630	0.18831706
209	0x3da434f6	0.08017914
210	0x3d234248	0.039858133
211	0x3dbf67db	0.09345981
212	0x3bc7ad42	0.006093652
213	0x3d514a75	0.0510964
214	0x3e7f5daa	0.24938074
215	0x3e33a4ee	0.17543384
216	0x3c5cb184	0.013470057
217	0x3dad8ada	0.084737495
218	0x3d8a6124	0.06756809
219	0x3eb80bb4	0.3594643
220	0x3e2239a4	0.158423
221	0x3745c707	1.1788455e-05
222	0x3d5c9301	0.05385113
223	0x3d878765	0.06617621
224	0x3decd9dd	0.115649916
225	0x3c3c16be	0.011480032
226	0x3e548468	0.20753634
227	0x3f032d7e	0.5124129
228	0x3e025191	0.12726428
229	0x3dbdb77d	0.09263513
230	0x3e9c89a9	0.30573776
231	0x3e30b15c	0.17255157
232	0x3e3ffa42	0.1874781
233	0x3cb9b257	0.022668047
234	0x3e276d0c	0.16350192
235	0x3e3cad2c	0.18425435
236	0x3eb7b2fc	0.35878742
237	0x3d00aeb3	0.031416606
238	0x3d26adea	0.0406932
239	0x3e87efed	0.26550236
240	0x3f1b7778	0.6072917
241	0x3d921441	0.071327694
242	0x3e939ad9	0.28829077
243	0x3d9ee0eb	0.077577434
244	0x3ce5fb42	0.02807391
245	0x3c1261c9	0.008934447
246	0x3d5c86d3	0.053839516
247	0x3e277419	0.16352881
248	0x3c8e8c08	0.017400756
249	0x3e863678	0.2621343
250	0x3f1397eb	0.57653683
251	0x3e4e7c6e	0.20164654
252	0x3c9a1279	0.018807637
253	0x3c72c410	0.014817253
254	0x3d42b9dc	0.04754053
255	0x3ae9cd27	0.001783763

fc1.weight f4 [128, 260]
0	0xbd73fe08	-0.059568435
1	0xbe23a52d	-0.15980978
2	0x3dbcb5da	0.09214373
3	0xbb747b5e	-0.0037304978
4	0xbe0bb6dc	-0.13643974
5	0x3d0b5688	0.03401807
6	0xbca03026	-0.019554209
7	0xbccc5a65	-0.024945447
8	0xbe36498e	-0.17801496
9	0xbcbf8303	-0.023377901
10	0x3d62f189	0.055406127
11	0x3d2043ed	0.03912728
12	0xbe15db94	-0.14634544
13	0xbe31673e	-0.1732454
14	0xbe645a35	-0.22300036
15	0x3cc97f75	0.024596909
16	0xbea92e23	-0.33043012
17	0xbd9a5338	-0.07535404
18	0xbe497f0a	-0.19677368
19	0xbdac3d20	-0.08410096
20	0xbd9dae83	-0.07699301
21	0xbcaa83f5	-0.020814875
22	0xbcb79d4a	-0.022413868
23	0xbe0ab43b	-0.13545315
24	0x3d98c370	0.07459152
25	0x3d94aae8	0.0725916
26	0x3d2e5501	0.042561535
27	0xbdbec3b4	-0.09314671
28	0xbd9cd0b2	-0.07656993
29	0xbe6478b3	-0.22311668
30	0xbe09cda0	-0.13457346
31	0xbd645a81	-0.055750374
32	0x3dc60494	0.09668842
33	0x3c640c3b	0.013918932
34	0xbdde1ceb	-0.108453594
35	0xbe32fc4a	-0.17479053
36	0x3d939c49	0.072075434
37	0xbe243676	-0.160364
38	0xbdaaa508	-0.083322585
39	0xbcecf619	-0.028925942
40	0x3dbf6bfa	0.09346767
41	0xbd7a6ea0	-0.061140656
42	0xbd1580a8	-0.03649965
43	0xbcd949ad	-0.02652439
44	0xbd5f5350	-0.054522812
45	0xbda3f9a5	-0.080066
46	0xbd6dc9f0	-0.05805391
47	0xbe8f2d1c	-0.27964103
48	0xbde646b7	-0.112439565
49	0x3bc08602	0.00587535
50	0xbe311713	-0.17293958
51	0x3d660794	0.05615957
52	0xbd988e39	-0.07449002
53	0xbd381e02	-0.044950493
54	0xbc032f57	-0.008006892
55	0xbd495236	-0.049150668
56	0xbdaf8d03	-0.08571818
57	0xbd425c7c	-0.04745148
58	0xbc397ad1	-0.011320786
59	0xbd4b9be0	-0.0497092
60	0xbd84bd7c	-0.06481454
61	0xbba23032	-0.004949593
62	0x3d98f08a	0.07467754
63	0xbc8e63ff	-0.017381666
64	0x3c4e6893	0.012598175
65	0xbd89e8bc	-0.06733844
66	0xbd1976c3	-0.037466776
67	0xbc5bfa40	-0.0134263635
68	0xbca97afa	-0.020688523
69	0xbdfcb9ed	-0.1234015
70	0x3cf6ca44	0.030125745
71	0x3de376d8	0.11106652
72	0xbce0e91e	-0.027454909
73	0xbd197ca2	-0.037472375
74	0xbd5a0bcd	-0.05323391
75	0x3d94d8d7	0.072679214
76	0x3c7b5b38	0.015341572
77	0xbc23184a	-0.009954521
78	0xbdaf2ad0	-0.08553088
79	0x3c801819	0.01563649
80	0xbbd90b19	-0.0066236374
81	0xbcb86f8e	-0.02251413
82	0xbd56a92a	-0.05240742
83	0x3d351174	0.044206098
84	0xbdf85568	-0.12125665
85	0xbd9f6e68	-0.0778473
86	0x3d92fa39	0.071766324
87	0xbcd8f40f	-0.026483564
88	0x3d1f4ceb	0.038891714
89	0xbe035d3a	-0.12828532
90	0x3c86e366	0.016465854
91	0x3c864bb7	0.016393526
92	0x3d747827	0.0596849
93	0x3d6336da	0.055472232
94	0xbe158249	-0.14600481
95	0xbd841bb5	-0.06450597
96	0xbd66bd89	-0.0563331
97	0xbc758e9c	-0.014987614
98	0xbd866d92	-0.06563868
99	0xbe748dc0	-0.23882198
100	0x3d75b2ea	0.05998508
101	0xbc2c35ad	-0.010510844
102	0xbe1f9528	-0.15584242
103	0xbdafbcda	-0.085809425
104	0xbb5a0a33	-0.003327024
105	0xbdb76416	-0.08954637
106	0x3c0e0bba	0.008669788
107	0xbd883b5b	-0.06651946
108	0x3c34a59a	0.011025811
109	0xbbebeefa	-0.007200119
110	0x3c3849f0	0.011248097
111	0x3d8f9f37	0.0701279
112	0xbdede7eb	-0.116165005
113	0xbe1e2c7d	-0.15446658
114	0xbc82e262	-0.015977088
115	0xbe137b7b	-0.14402573
116	0xbc18d0b8	-0.009327106
117	0x3d2ee97d	0.04270314
118	0xbe6d4b08	-0.23173153
119	0x3d2cc835	0.04218312
120	0x3daed50e	0.08536731
121	0xbd87e6f2	-0.06635846
122	0x3d25feb2	0.0405261
123	0x3d5b0b8c	0.05347781
124	0xbd05087a	-0.032478787
125	0x3b0ae001	0.0021190646
126	0xbb935791	-0.0044965227
127	0x3bc3921f	0.0059683467
128	0xbe203cd8	-0.1564821
129	0x3bf8fdd6	0.007598619
130	0xbda0744b	-0.07834681
131	0xbd6feb12	-0.05857379
132	0x3dd8bf05	0.10583309
133	0xbce4cd73	-0.027929997
134	0x3d724bc5	0.05915429
135	0xbc2f075e	-0.010682909
136	0xbc683309	-0.014172324
137	0xbe0b6811	-0.13613917
138	0x3c92bbc2	0.017911796
139	0x3cb67f24	0.022277422
140	0xbdfbaa8f	-0.12288391
141	0x3c0ae678	0.0084778
142	0x3d5c78bc	0.05382608
143	0x3d0b04ae	0.03394001
144	0x3cec08aa	0.028812725
145	0xbda416e8	-0.080121815
146	0xbdb94393	-0.09046092
147	0x3c918799	0.017764853
148	0xbd82c217	-0.06384676
149	0x3d37b2d1	0.044848267
150	0x3cca108c	0.024666093
151	0xbd3ff335	-0.0468628
152	0x3e187b2e	0.1489074
153	0xbcaf55fc	-0.021403305
154	0xbe29a75e	-0.16567752
155	0xbdf149f4	-0.117816836
156	0xbd76e992	-0.060281344
157	0x3d0879c0	0.033319235
158	0x3c1469dc	0.009058442
159	0xbd26659b	-0.040624242
160	0xbdf79a6d	-0.12090001
161	0xbd27b947	-0.04094818
162	0x393f7068	0.00018257054
163	0x3d0dce06	0.034620307
164	0xbc85355d	-0.016260797
165	0xbe0d215e	-0.1378226
166	0xbc8914ce	-0.016733553
167	0xbe135f64	-0.14391857
168	0xbc394b71	-0.011309491
169	0xbad6fad5	-0.0016401658
170	0x3d4af75f	0.049552318
171	0x3c426948	0.011865921
172	0xbd506a58	-0.050882667
173	0x3dc38914	0.0954763
174	0xbd90db36	-0.07073061
175	0x3cf77b88	0.030210271
176	0xbe4083d4	-0.18800288
177	0x3d8ad3b6	0.06778662
178	0xbd931f43	-0.07183697
179	0x3d833c5e	0.064079985
180	0xbd3ad78f	-0.04561573
181	0xbde61518	-0.11234492
182	0xbd36f37f	-0.04466581
183	0xbd67b09a	-0.056564905
184	0xbd4c5f9b	-0.049895864
185	0xbd0d160a	-0.034444846
186	0x3cdc57d3	0.026897347
187	0x3cb69228	0.02228649
188	0x3c4d1949	0.0125182355
189	0xbd837e9c	-0.06420633
190	0xbe8777e0	-0.26458645
191	0x3e4058b1	0.18783833
192	0xbdcaee04	-0.09908679
193	0x39933689	0.00028078657
194	0x3d7cb6f7	0.061697926
195	0x3d1e1ccc	0.03860168
196	0xbe20b89f	-0.15695427
197	0x3d566730	0.0523445
198	0x3d037284	0.032091632
199	0xbca7e47c	-0.020494692
200	0x3ce63a40	0.028103948
201	0xb961bb45	-0.00021527435
202	0xbda95bbd	-0.08269451
203	0xbd8a9a2b	-0.067676865
204	0xbda707be	-0.081557736
205	0xbe436b58	-0.19083917
206	0xbdb73f1b	-0.08947583
207	0x3cca53ab	0.0246981
208	0x3d5d75be	0.054067366
209	0xbdb651d7	-0.089023285
210	0xbcdd9892	-0.02705029
211	0x3e1b810e	0.15185949
212	0xbde1aa79	-0.11018843
213	0x3d9fc465	0.07801131
214	0xbd8d58b1	-0.06901682
215	0xbd91d547	-0.071207576
216	0xbd7019ad	-0.058618236
217	0xbd031ca3	-0.032009732
218	0xbe10db3e	-0.14146134
219	0x3cb0765e	0.021540817
220	0x3d9112d7	0.070836715
221	0x3cf735f0	0.030177087
222	0xbd4ee18a	-0.05050806
223	0x3d6010a2	0.054703362
224	0x3e0805c3	0.13283448
225	0x3d3bca30	0.045847118
226	0xbd91dfaa	-0.07122739
227	0xbd48902c	-0.048965618
228	0xbe523fd5	-0.20532162
229	0x3c4f7a20	0.012663394
230	0x3d8b3db5	0.06798879
231	0xbddce3dd	-0.10785649
232	0x3d1aa849	0.037758145
233	0xbdc31184	-0.09524825
234	0xbbbc3a48	-0.0057442524
235	0xbdd7661d	-0.105175234
236	0x3d8a4da1	0.06753088
237	0xbe25b5cf	-0.16182636
238	0x3d339af0	0.04384893
239	0xbdbf16bd	-0.09330509
240	0xbc3f9ac1	-0.011694611
241	0xbd8d9363	-0.069128774
242	0xbc50f0ed	-0.012752754
243	0xbdc9eb2b	-0.09859308
244	0x3cfff4c2	0.03124464
245	0xbca1fa4e	-0.019772675
246	0xbbd40924	-0.006470816
247	0xbe2f243b	-0.17103665
248	0x3cbf234a	0.023332257
249	0xbe580ead	-0.21099348
250	0xbcf74c0d	-0.030187631
251	0x3da958fd	0.08268926
252	0xbb374448	-0.0027964283
253	0xbcf2d768	-0.02964373
254	0xbd15ca9a	-0.03657017
255	0xbccc5f48	-0.024947777
